…
2021-11-04 07:49:17.300101: I tensorflow/core/common_runtime/gpu/gpu_device.cc:1102] Device interconnect StreamExecutor with strength 1 edge matrix:
2021-11-04 07:49:17.302879: I tensorflow/core/common_runtime/gpu/gpu_device.cc:1108]
Model: "model"
__________________________________________________________________________________________________
Layer (type)                    Output Shape         Param #     Connected to
==================================================================================================
input_1 (InputLayer)            [(None, 64, 64, 3)]  0
__________________________________________________________________________________________________
conv2d (Conv2D)                 (None, 16, 16, 64)   23296       input_1[0][0]
__________________________________________________________________________________________________
max_pooling2d (MaxPooling2D)    (None, 7, 7, 64)     0           conv2d[0][0]
__________________________________________________________________________________________________
conv2d_1 (Conv2D)               (None, 7, 7, 192)    307392      max_pooling2d[0][0]
__________________________________________________________________________________________________
max_pooling2d_1 (MaxPooling2D)  (None, 3, 3, 192)    0           conv2d_1[0][0]
__________________________________________________________________________________________________
conv2d_2 (Conv2D)               (None, 3, 3, 384)    663936      max_pooling2d_1[0][0]
__________________________________________________________________________________________________
conv2d_3 (Conv2D)               (None, 3, 3, 256)    884992      conv2d_2[0][0]
__________________________________________________________________________________________________
conv2d_4 (Conv2D)               (None, 3, 3, 256)    590080      conv2d_3[0][0]
__________________________________________________________________________________________________
max_pooling2d_2 (MaxPooling2D)  (None, 1, 1, 256)    0           conv2d_4[0][0]
__________________________________________________________________________________________________
flatten (Flatten)               (None, 256)          0           max_pooling2d_2[0][0]
__________________________________________________________________________________________________
dropout (Dropout)               (None, 256)          0           flatten[0][0]
__________________________________________________________________________________________________
dense (Dense)                   (None, 4096)         1052672     dropout[0][0]
__________________________________________________________________________________________________
yaw (Dense)                     (None, 66)           270402      dense[0][0]
__________________________________________________________________________________________________
pitch (Dense)                   (None, 66)           270402      dense[0][0]
__________________________________________________________________________________________________
roll (Dense)                    (None, 66)           270402      dense[0][0]
==================================================================================================
Total params: 4,333,574
Trainable params: 4,333,574
Non-trainable params: 0
__________________________________________________________________________________________________
WARNING:tensorflow:From C:\MyDocuments\Dydaktyka\2021-2022\CV\pose6D_alexNet_students\models.py:80: Model.fit_generator (from tensorflow.python.keras.engine.training) is deprecated and will be removed in a future version.
…
